…
    "execution": {
     "iopub.execute_input": "2024-11-20T20:04:06.611595Z",
     "iopub.status.busy": "2024-11-20T20:04:06.611148Z",
     "iopub.status.idle": "2024-11-20T20:04:06.619041Z",
     "shell.execute_reply": "2024-11-20T20:04:06.617777Z"
    },
    "papermill": {
     "duration": 0.029969,
     "end_time": "2024-11-20T20:04:06.621312",
     "exception": false,
     "start_time": "2024-11-20T20:04:06.591343",
     "status": "completed"
    },
    "tags": []
   },
   "outputs": [
    {
     "data": {
      "text/plain": [
       "TabularModel(\n",
       "  (embeds): ModuleList(\n",
       "    (0): Embedding(1116, 81)\n",
       "    (1): Embedding(8, 5)\n",
       "    (2): Embedding(4, 3)\n",
       "    (3): Embedding(13, 7)\n",
       "    (4): Embedding(32, 11)\n",
       "    (5): Embedding(3, 3)\n",
       "    (6): Embedding(5, 4)\n",
       "    (7-8): 2 x Embedding(4, 3)\n",
       "    (9): Embedding(24, 9)\n",
       "    (10): Embedding(8, 5)\n",
       "    (11): Embedding(13, 7)\n",
       "    (12): Embedding(53, 15)\n",
       "    (13): Embedding(22, 9)\n",
       "    (14-15): 2 x Embedding(7, 5)\n",
       "    (16-17): 2 x Embedding(4, 3)\n",
       "    (18-19): 2 x Embedding(9, 5)\n",
       "    (20-21): 2 x Embedding(3, 3)\n",
       "  )\n",
       "  (emb_drop): Dropout(p=0.04, inplace=False)\n",
       "  (bn_cont): BatchNorm1d(16, eps=1e-05, momentum=0.1, affine=True, track_running_stats=True)\n",
       "  (layers): Sequential(\n",
       "    (0): LinBnDrop(\n",
       "      (0): Linear(in_features=213, out_features=1000, bias=False)\n",
       "      (1): ReLU(inplace=True)\n",
       "      (2): BatchNorm1d(1000, eps=1e-05, momentum=0.1, affine=True, track_running_stats=True)\n",
       "      (3): Dropout(p=0.001, inplace=False)\n",
       "    )\n",
       "    (1): LinBnDrop(\n",
       "      (0): Linear(in_features=1000, out_features=500, bias=False)\n",
       "      (1): ReLU(inplace=True)\n",
       "      (2): BatchNorm1d(500, eps=1e-05, momentum=0.1, affine=True, track_running_stats=True)\n",
       "      (3): Dropout(p=0.01, inplace=False)\n",
       "    )\n",
       "    (2): LinBnDrop(\n",
       "      (0): Linear(in_features=500, out_features=1, bias=True)\n",
       "    )\n",
       "    (3): fastai.layers.SigmoidRange(low=0, high=10.816998424176623)\n",
       "  )\n",
       ")"
      ]
     },
     "execution_count": 57,
     "metadata": {},
     "output_type": "execute_result"
    }
   ],
   "source": [
    "learn.model"
   ]
  },
  {
   "cell_type": "code",
   "execution_count": 58,
   "id": "4af3974b",
…
